NetNoWork/code/new/cifar_net.pth (torch_old, 249562 bytes, 10 tensors)

conv1.weight f4 [6, 3, 5, 5]
00000000: c051 833d 9096 47bd f091 a4bd e928 b8bd
00000010: da3b 12be 664f b53d d490 1e3e f531 e93b
00000020: 105b 3fbe 01d6 20be 2fd0 a23d 8130 063e
00000030: 8f56 933c e3c7 14bc 8106 b1bd 6424 d63d
00000040: da5a ee3d 1052 523e 9504 043e 22ea 6cbd
00000050: d3aa 843d 544f f63d 4cf9 703d d57b 0e3e
00000060: 975e 83bc 1883 143d 5ba8 22bd c4e9 1ebe
00000070: dc2c 14be 1e88 cebd 8394 a53d 689f dd3c
00000080: 7eb5 f5bd 6959 1ebe 3593 fcbd 4764 9cbd
00000090: b62e 14bb 84b9 363c 3bcb 9fbc f7ad 05be
000000a0: e4bf dbbd bfc2 b63d e7f8 a5bd bd28 0fbe
000000b0: 5a01 b8bd 31c7 17be 7289 ac3b 6028 f93c
000000c0: 3f60 883d c8fb 083b cc0e 923e 2920 583e
000000d0: 4c58 e73c cb93 0e3d 120b 1cbd c0db 453e
000000e0: 919c 463e 7e0c 1d3e c1c3 c03d 74ed d3bc
000000f0: 41b4 8e3e 91d7 aa3e 55bd 393e a511 92bb
00000100: 0741 75bd 86b9 f53d 2529 df3d c386 5c3e
00000110: bedb 103e 86f5 bc3d 8f1e c73d 3834 cf3d
00000120: d7c2 ba3d 062e 51bc 58f9 b43c 40c6 69be
00000130: daf8 6ebe cab6 f1bd d352 ba3d 8efd 32bd
00000140: 16f6 09be 6e04 353d f2fd ae3e a59a 08be
00000150: 4e1d bcbe 3bb2 e2bb 09df 9f3c e847 153e
00000160: 1169 81be 796e 08be 823b 9f3e b517 f0bd
00000170: 439f c3be 61cb 03be 664b 943d 1874 bbbc
00000180: 6aa1 00be 6459 01be 61ae 103e 886e 86bd
00000190: 0aaf 1b3e e0aa 6c3c b8d6 db3d 0e7d d13d
000001a0: 4f0f c43c 40cb a9bd 1daf ab3e f5d9 023f
000001b0: c323 21bd 8359 3cbe 7468 d53e ee3c 2a3e
000001c0: 31c9 aa3e 27de 85bd 41a0 c7bd 0a9a ee3e
000001d0: fa17 1abd d1a8 08be d905 5f3e 07ce 943e
000001e0: 42d7 343e 2c4a 063e dbfa 12bd 09e9 633e
000001f0: 668c 383e d6fe 3cbe 540f 28be 2bb8 05be
00000200: 13b6 1cbd 512d 28bd 0229 30be 6010 e33d
00000210: 0e4f 813e 7d5c 4cbe 5425 25be 4935 083e
00000220: 20d1 abbd 1dbf 063e c559 f9bd 80e9 bebd
00000230: e390 c83e a816 bbbd ff62 a9be 8f69 d8bb
00000240: 407b 71bd 2859 bbbc 7cf9 f7bb b18a 87be
00000250: df0d ba3d c9a8 16bc d541 cc3d 5b53 fc3d
00000260: 5373 c83e c617 f83e 549f 093f e8c9 963e
00000270: 99c7 9e3e a056 043f 495e 003f 1e46 b03e
00000280: 51b3 2a3e 8ce0 f23d da44 943d d253 083e
00000290: c335 0e3e a286 d4bd fc1c b4be fffa c7be
000002a0: dc37 d4be 06bf a7be ad36 34be 6f96 2fbe
000002b0: abb4 87be 3a58 a1be ca1d d0be 362c 9abe
000002c0: cd04 a8be 25d9 fdbd dc07 4abe da49 443d
000002d0: c1d7 cbbd 3219 f23c b070 553e a999 293d
000002e0: b117 3e3d f3f9 95bd 4ede a1bd ab4f 553d
000002f0: 1ff8 5dbd 3042 73bd 3926 6ebd 6d6b 22be
00000300: 397f debe 9bd6 ecbe 4d25 74be a2d9 c93d
00000310: cd8d 253e 400b eb3d de03 7fbd d92f cebd
00000320: eaf9 a1be dd4b acbe bd69 fcbd 169f 71be
00000330: dc9d dabc 6f26 c63d 573a 2c3d 6c99 1d3e
00000340: 10d2 babc 5abc f4bb 5c52 de3d c4b1 373d
00000350: 656f 573e 7bfb 1b3d 77ad 023e e83f a63d
00000360: 4613 923d e532 1ebe 141e 13bd 6309 8b3d
00000370: 6a3c a53e d7df 583e 5dce 7e3e 91f6 843e
00000380: 4543 5c3e 5e89 873e bf7d 343e 1056 28bc
00000390: beb0 4dbe e3b9 ecbd 385d 1b3e 679e 4e3d
000003a0: ee79 36be 5da1 a7be fd50 e5bc e374 66be
000003b0: 9574 d5be 5ee5 66be e21f 793d 8db5 a73d
000003c0: f3a5 8dbe 50a7 cabd 76a3 ac3d f41b e23d
000003d0: 9caa f53d ddc3 27bd e331 283e c478 593e
000003e0: b448 4e3d abe4 8d3d d36f 693e 6ac1 d43c
000003f0: 50b9 92bd ddff 2fbe c71b 7abe 7e56 953d
0.06412077 -0.048727572 -0.08035648 -0.08992178 -0.14280644 0.08853035 0.15484935 0.007116551
-0.18687081 -0.15706636 0.07949864 0.1310444 0.01798561 -0.00908086 -0.08643819 0.1045616
0.11638422 0.20539117 0.12892373 -0.057840474 0.06477895 0.120268494 0.058831498 0.13914426
-0.016036315 0.036257833 -0.039711338 -0.15518862 -0.14470237 -0.10084556 0.08084967 0.02705355
-0.119975075 -0.15463795 -0.12332765 -0.07636314 -0.002261085 0.011152629 -0.019506088 -0.13054644
-0.107299596 0.089238636 -0.08104115 -0.13980384 -0.08984633 -0.14822079 0.005265408 0.03041476
0.066589825 0.0020902026 0.28526914 0.21106018 0.028240345 0.034808915 -0.038096495 0.19322109
0.19395663 0.15336797 0.09412337 -0.025870062 0.27871898 0.3336759 0.1813863 -0.00445767
-0.059876468 0.119982764 0.108965196 0.21535783 0.14146325 0.092265174 0.097226255 0.10117382
0.09119194 -0.0127673205 0.022091553 -0.22829533 -0.23337117 -0.11802442 0.09097829 -0.04369884
-0.1347278 0.044193678 0.3417812 -0.13340242 -0.36741108 -0.0069182194 0.019515531 0.14578211
-0.25275472 -0.13323392 0.31100088 -0.11723272 -0.38207445 -0.12870552 0.072409436 -0.022882506
-0.12561575 -0.12631756 0.1412902 -0.06564051 0.15203491 0.014445037 0.10734314 0.102289304
0.023933081 -0.0829072 0.33532038 0.51113826 -0.039340746 -0.18393521 0.41681254 0.16624805
0.33356622 -0.06536513 -0.09747363 0.46601897 -0.037620522 -0.13345648 0.21779574 0.29063436
0.1766024 0.13114232 -0.035883766 0.22256865 0.18022308 -0.18456587 -0.16412097 -0.13058536
-0.038259577 -0.041058842 -0.17203143 0.11087108 0.25255626 -0.19957156 -0.16127521 0.13301577
-0.08389497 0.13158841 -0.12175325 -0.0932188 0.3917304 -0.09135181 -0.3308334 -0.0066043804
-0.05895543 -0.022869661 -0.0075675827 -0.26473 0.09084677 -0.009195515 0.09973494 0.12320586
0.39150485 0.48455638 0.5375874 0.29450917 0.31011656 0.5169468 0.5014387 0.34428495
0.16669966 0.11859235 0.07239695 0.13313225 0.13887696 -0.10377242 -0.35178363 -0.39058682
-0.41448867 -0.32762927 -0.17598982 -0.1714723 -0.26505026 -0.31512624 -0.40647727 -0.30111855
-0.32816163 -0.12394933 -0.1972956 0.047921993 -0.09953261 0.02955303 0.20843768 0.041406307
0.046409313 -0.07323065 -0.079037294 0.05207793 -0.054191705 -0.059389293 -0.05814192 -0.15861292
-0.43456438 -0.4625748 -0.23842354 0.09855963 0.16167374 0.11476755 -0.062259547 -0.1006772
-0.31635982 -0.3365163 -0.123248555 -0.23595843 -0.026686601 0.096752994 0.042047825 0.15390557
-0.022805244 -0.0074687423 0.108555526 0.044847265 0.21038587 0.038081627 0.12761484 0.08117658
0.07132582 -0.15449102 -0.035917357 0.067889 0.32272655 0.21179138 0.24883409 0.25969365
0.21510036 0.2647199 0.17626093 -0.010274425 -0.20086953 -0.115588926 0.15172279 0.050444033
-0.1781995 -0.32740298 -0.02799272 -0.22505526 -0.41690508 -0.22548434 0.06082142 0.08188925
-0.27665672 -0.098951936 0.08429615 0.11040488 0.11995432 -0.040958274 0.1642528 0.21237475
0.050362304 0.069283806 0.22796564 0.025971133 -0.07164252 -0.17187448 -0.24424659 0.07291888

conv1.bias f4 [6]
00000000: ea50 e43c f795 0f3e 24c6 cfbe 796f 9fbe
00000010: 1f17 5cbe 637c aa3d
0.027870614 0.14022051 -0.40580857 -0.31139734 -0.21493195 0.08324506

conv2.weight f4 [16, 6, 5, 5]
00000000: 38f7 49be 937b 4ebd 588e 673c b165 273d
00000010: 1068 a43d 64dd 9fbc d3d5 2e3d b016 d7bc
00000020: 211e d73d ae57 2f3e b09a d7bd c15e 0bbd
00000030: b605 0dbc e181 14bc 2e5f 0a3e 4055 6abc
00000040: 1baa ba3c fb83 3b3d 7fcc 0abc 715d 243e
00000050: 2884 8f3d 938b 8b3d 56c2 c5bc 04be 7dbd
00000060: 7269 cc3d 551f 2a3d 724b bb3d 9a8c 673d
00000070: 0f2b 42bc b5bd 453e 900d 46bd 2cf9 f0bd
00000080: 3752 86bd b947 c13c 2cf3 febd e24a 3cbe
00000090: 28b6 e8bd 7b3e 383e 6919 e1bc ee9b 91be
000000a0: aa71 73bd 9043 28bd e1e9 223e b706 74be
000000b0: 793b 55be 3786 ce3d 2fcd e63d 6f66 43bd
000000c0: f867 d2bd 088b 63bd 50de 333d 9e84 373d
000000d0: a81f e5bd 1fcc 2c3e 94ce 143e e6fd 88bd
000000e0: 69ee 7cbe d623 013e ffd9 583e 5862 983c
000000f0: 22a6 13be d1de 08be 2099 673e ca48 a23d
00000100: 0267 c1bd f02d a4bd 00a9 e33c 07a5 473d
00000110: a7cf d2bd 50d9 1dbc 4b7e 973d 8225 473c
00000120: 45ca ecbd 2cc6 f3bd b5b8 403c 4eaf 6e3d
00000130: 951b f03d bf9c 443e c255 34bd 0620 a2bd
00000140: 8047 54bd ec77 c73d 42f8 bcbd 6ac5 10be
00000150: 777c 7d3e 4587 cebd 478f 16be a691 78be
00000160: 8dd8 0a3e f114 633e 713f 213d 95b0 3fbe
00000170: a3f1 42bd 27db 753e 0070 863d d7ca 603c
00000180: f5a2 7e3b 791d 233d cd65 ec3d 3a46 ccbd
00000190: 035e c73c 5779 1f3d 311e a7bc dfd5 bc3d
000001a0: ee44 183e 2ca6 8abd 8233 4f3c 154c 89bc
000001b0: 3aa1 c6ba 076e a13d 1ee0 923d cd1d eabd
000001c0: 9e20 413d 4ad8 3d3e 7f71 82bc bbdf eebc
000001d0: 875f c53c 2bb3 b03d 67e5 82bd 9d7b 2fbc
000001e0: 770e 223d 1aea fc3c fdcd 293d a34b d2bd
000001f0: 0775 1b3e 6432 7ebe ae9e 7ebe 53e3 66be
00000200: a2f0 5cbe f068 edbd c9a5 29be f7a8 8fbe
00000210: 4dd4 96be b251 53be b030 78bd 382d 1ebe
00000220: e822 e7bd 3162 0dbe 9450 1fbe f4c3 b9bc
00000230: 883d 11bd d000 dabd ce10 18be 98f3 53be
00000240: f7ad 46bc 6fd9 eebd 8f65 c6bd dc1a 58bd
00000250: ff20 08be 7e43 81bd 021a 99be 6c71 5abe
00000260: 2fd4 18bd eae3 933a 9da2 f4bc 6646 0dbe
00000270: 7d6c 4cbe 57c7 34be 4400 3b3c c118 bebc
00000280: 75b1 c33d cad6 29bd c3d6 eabd fc7e b9bc
00000290: 8614 abbd 3d87 1d3d 2d87 0f3e fb9d 303e
000002a0: 3f37 c73d dbfc d53c 6735 38bb f6b3 633d
000002b0: 2b1e 033e bc01 803e 3807 ca3d 42a9 96bd
000002c0: 1e41 9bbe b0c8 59be 8dcd d0bd a1f8 8e3d
000002d0: 2b0f d83d e98d cbbd 0e73 92be ff0b a9be
000002e0: 9278 4cbd 4bce 5b3e 3bde 013e b752 00be
000002f0: 7f29 b7be f303 83be 07e9 2f3e 65f5 423e
00000300: 6695 a93d ed80 e0bd 5aa9 68be c886 da3d
00000310: ffa9 5d3d 30b7 a03d 4f10 1dbd e9ea 0bbe
00000320: a28d 9cba 6601 1c3e 44ac 3ebd 1713 18be
00000330: 97a4 7ebd 3695 06be e236 fa3c cb88 ba3d
00000340: c5ef 5dbc 3f9c d3bd 91b0 08be 0461 13be
00000350: 4898 823d e7a8 b03d 05d9 8bbb 648c 0dbe
00000360: dd1d 3fbe 9ad5 ebbc e205 043e a6f4 dc3d
00000370: 69ff 5dbe 33d9 b5bd cf38 20be 3c47 773c
00000380: a8ef c23c c869 ff3d 08d4 4abe 0954 2bbe
00000390: e200 b939 7424 46bd f512 1d3e dfa5 d2bc
000003a0: 894f 29be b3fd 3ebe 6093 66bd 577d 4e3e
000003b0: 5bff 0c3e 3769 62bd d6a4 55be a90d ddbd
000003c0: 17d3 833d c8a2 4f3e b654 b73d 65c7 e03c
000003d0: 2b45 8abd c11c b5bd 8b63 903c 319f 2d3d
000003e0: 28da 2b3e a2bf 663d f93b b73d 4af3 a8bd
000003f0: 99b2 86bd cb83 e2bd c427 3d3d 7aae 2e3e
-0.19723213 -0.05041082 0.0141330585 0.040868465 0.08027661 -0.019514747 0.042684387 -0.026255935
0.105037935 0.17123291 -0.10527551 -0.03402591 -0.008607319 -0.009064169 0.1351287 -0.014302552
0.02278619 0.045780163 -0.008471607 0.1605127 0.07007629 0.06813731 -0.024140518 -0.06194879
0.099810496 0.041533787 0.091452494 0.056530572 -0.011851086 0.19310649 -0.048352778 -0.11766276
-0.0655865 0.02359377 -0.12448725 -0.1838794 -0.113628685 0.17992584 -0.027477937 -0.28439277
-0.05943457 -0.041080058 0.1590953 -0.23830687 -0.20823468 0.10084193 0.112696044 -0.04770511
-0.10273737 -0.055552512 0.043913186 0.044804208 -0.111876786 0.16874741 0.14531928 -0.06689052
-0.24700321 0.12611327 0.21176909 0.018601581 -0.14418843 -0.13366248 0.22617006 0.0792404
-0.09443475 -0.080165744 0.027790546 0.048741367 -0.10293513 -0.009634331 0.07397135 0.012154939
-0.11562017 -0.11903033 0.011762788 0.058272652 0.11724011 0.19200419 -0.044027098 -0.07916264
-0.051826 0.0973967 -0.09227039 -0.14137807 0.24754511 -0.10084394 -0.14703093 -0.2427431
0.1355917 0.22175957 0.039367143 -0.18719704 -0.047593724 0.24009381 0.06564331 0.013720236
0.0038854454 0.03982303 0.115428545 -0.09974332 0.02433682 0.038934078 -0.020400139 0.0922048
0.14870045 -0.06769976 0.012646558 -0.016759912 -0.001515425 0.07882314 0.07171653 -0.11431465
0.047150247 0.18539539 -0.01592326 -0.029159417 0.024093403 0.086279236 -0.06391411 -0.010710624
0.039564576 0.030873347 0.04145621 -0.10268333 0.15181361 -0.2482391 -0.24865219 -0.22547655
-0.21576169 -0.11592281 -0.16567148 -0.28058597 -0.29458848 -0.20636633 -0.060593307 -0.15446937
-0.11285955 -0.13806988 -0.15558082 -0.022676446 -0.03545907 -0.10644686 -0.1485016 -0.20698392
-0.012126437 -0.11662566 -0.096873395 -0.05275999 -0.13293837 -0.06311701 -0.29902655 -0.2133233
-0.03731173 0.0011283134 -0.029862696 -0.13796386 -0.1996326 -0.17654167 0.011413638 -0.023205163
0.095553316 -0.041464604 -0.11466744 -0.022643559 -0.08353524 0.03845905 0.14016409 0.17247765
0.09727334 0.026121547 -0.0028108002 0.055591546 0.12804477 0.25001323 0.09864658 -0.07356502
-0.30323118 -0.21267962 -0.10195456 0.06981016 0.10549768 -0.099391766 -0.28603405 -0.33016965
-0.049919672 0.21465413 0.1268243 -0.12531553 -0.35773847 -0.2558895 0.17178737 0.19038923
0.082804486 -0.10962091 -0.22720852 0.10670239 0.0541172 0.0784744 -0.03834563 -0.1366383
-0.0011944065 0.15234908 -0.046551004 -0.14851032 -0.062168684 -0.13142857 0.030543748 0.091081224
-0.013545935 -0.10332536 -0.13348605 -0.14392477 0.063767016 0.086259656 -0.004267814 -0.13823086
-0.18663736 -0.028788377 0.12892869 0.107888505 -0.21679462 -0.08879318 -0.15646671 0.015092667
0.023795918 0.12471348 -0.19807446 -0.16731276 0.00035286607 -0.04837461 0.15339263 -0.02571386
-0.16534247 -0.18651466 -0.05629289 0.20165001 0.13769285 -0.055276122 -0.20863661 -0.10793621
0.064367466 0.2027694 0.08951704 0.027438829 -0.06751474 -0.08843375 0.01762559 0.042388145
0.16782439 0.0563351 0.08946986 -0.08249529 -0.065770335 -0.11060294 0.0461805 0.17058745

conv2.bias f4 [16]
00000000: b44b 143f 64cb 93bd 1eee 15be e813 55be
00000010: d254 9ebe ec71 c6be e61a 3abd d2dd 88be
00000020: a8f1 003f 78c8 113f edc9 eebe 830e 583f
00000030: 1ebb b7be 52f4 973e e42f ecbb a4c7 8bbd
0.57928014 -0.07216528 -0.14641616 -0.20808375 -0.30924088 -0.3875879 -0.04543581 -0.26731735
0.5036874 0.56946516 -0.46638432 0.84397143 -0.35884947 0.2967859 -0.0072078574 -0.06825188

fc1.weight f4 [120, 400]
00000000: 7415 56bd 3ec1 3e3c 8942 8f3c 2322 22bd
00000010: 0b5c 26bd 09a3 1fbb 3796 9d3d 26c2 833d
00000020: 3e55 2dbd d523 90bc 9dfa a0bc 97b7 4c3d
00000030: 81e0 4e3d 448f 1dbd ba8e 88bd d217 e8bc
00000040: 57b9 f33c bba4 863d 0135 2dbd 7941 6abd
00000050: c050 31bd a152 48bc 61da 82bc dd7d 6b3d
00000060: a36c 58bd 8ae4 6bbc ca9c a1bb cd7d eb3c
00000070: ee77 53bd a70a 74bd c249 81bb 5773 0bbc
00000080: 1889 45bc 3103 8fbc 3a5a 76bd f01f c8bc
00000090: b13c 25bc 97bb 9b3c f81f 653c 1955 43bd
000000a0: 7802 aab9 2015 133d 263b 513d bf7e 263d
000000b0: 6169 7d3c 591b a1bd b4bf 8bbc 5fec 8a3c
000000c0: 5131 bbbb 4bad 3a3d caff dabc c3fa 6b3d
000000d0: 1459 94bc 7806 1e3d 3d77 50bd fd84 a5bd
000000e0: 2fad 0e3c f3dc 503c 3e6f 01bd 9585 a03b
000000f0: 8853 cabc 3b22 80bc de9f 353d b718 7e3c
00000100: 571d 40bd 82e2 9c3c ac55 98bc 37f9 8b3c
00000110: acc7 a33c ae5a 23bc 2df8 153d f0f8 78bd
00000120: df06 8abd 0242 b23b f3a1 593c 5581 463b
00000130: b982 393d f20d 6c3d aabd 9ebc 06d3 b4bc
00000140: 45e0 fbbc 0d60 f9bc ae4f ba3c 03dd 153d
00000150: c0d8 dd3b f6f1 aebd f820 72bd f401 26bc
00000160: 2030 adbc 6a49 723d a1b7 4abd 7270 7ebc
00000170: 43c1 c1bd f980 6a3c 2069 e33b 5e83 5cbd
00000180: 23c9 5ebc d11c 65bd 588e 2ebd 2248 8c3c
00000190: b440 b53c 2390 f5bc 2270 263d 946e 1d3d
000001a0: 2d49 e6bc a564 41bc 3be7 8bbb 7bd1 85bd
000001b0: 1b19 b23c b50e 42bd 175a 273d 270f fcbc
000001c0: 41d0 d23c 3c3f 21bd 5be3 17bd 92e5 4bbd
000001d0: 2a7f cf3c 4984 1dbd 11a4 973c fa07 26bc
000001e0: 5f2a 3a3d a0b4 48bb edc4 343d c87a 83bc
000001f0: 6b5e ab3c d95b 863b 0665 e6bc 9b90 94bc
00000200: 34f1 fc3b 47c3 b33c cc1a f53a 6bcc db3c
00000210: 40d9 8d3b dca2 bd3c 264c eebc 3e7f 3c3b
00000220: bf38 71bc 07bf 373b 5143 023d 8d96 f0bc
00000230: b917 42bd c221 3dbd f5d7 39bd 0be1 05bd
00000240: a729 bdbc 6321 77bd 926e d33b 1ebd 49bc
00000250: 8610 c43b 9398 593c dab3 4e3d 513f e83b
00000260: 2670 c13b 8bc9 a7bc 8726 b03d aa80 133d
00000270: 2c1c 183c 0091 043d abd6 0c3d ea91 83bb
00000280: d12f 593d 2230 1f3d 7abc f93c 4419 8c3c
00000290: 7102 31bd 25cc abbc 8add 85bc e261 d1bc
000002a0: 4d86 9cbd 8ec4 d63b cb64 43bd 4b46 93bd
000002b0: 3bb2 59bc 0037 88bd a21d 4c3d 680b 743a
000002c0: c6ab 2c3d 365a 093d 586d 66bb a0ec 363c
000002d0: aa8c 21bc 6c3f 9a3c 4578 7a3d 4e3b a1ba
000002e0: b12d 3f3d a861 39bd 358a 543d 2bdc 80bc
000002f0: 08a4 9f3c aa1f 9abc a539 a9bc 70d6 84bc
00000300: ee12 1b3d 0271 30bd 558a c73b ec26 14bd
00000310: 4d26 f23c 162b 1b3d e643 3dbd 1fe7 f8ba
00000320: 7b50 36bc bd78 6dbd b26d 3c3c a8cd 513c
00000330: 5e66 b2bc d4b5 1b3c 107f 87bc a956 a43c
00000340: 4caf 0e3d d5e0 3abc f7e7 2e3d 5bd3 a53c
00000350: dfe4 bdbc 21e8 22bd 9a10 9bbc c230 543d
00000360: ea16 243d 78d5 0d3d 4cd0 883c c5dc 0ebd
00000370: e75f 6d3c 8385 813c 5fd1 7cbc 2cf1 813c
00000380: 6bf5 86bc 1655 96bc 9b95 be3c 0783 b4bc
00000390: 516a 6f3c 4cb2 87bc a484 8e3d 4f46 a6bc
000003a0: 1ba1 1ebc a9a1 d4bc 9b40 6f3c 894a d73c
000003b0: d0f3 ccbc ff05 9e3a ab44 983c fced dbbc
000003c0: 0fc2 83bc e6d0 ec3b b9b2 ab3a 33b2 30bd
000003d0: 2f47 533c a65b 4abc a337 093d 26cb e63b
000003e0: 2e86 71bb b3f2 af3c 41fd 68bc 52d4 1b3d
000003f0: 9eab 953d 1d10 8bbc 15d2 8d3c 734a e43a
-0.052266553 0.011642752 0.017487781 -0.039583337 -0.040615123 -0.002435865 0.07694667 0.06433515
-0.04231762 -0.017595211 -0.019650752 0.049979772 0.050507072 -0.038466707 -0.06667848 -0.02833167
0.029751463 0.065743886 -0.042286877 -0.057191346 -0.0432899 -0.0122267315 -0.015973272 0.05749308
-0.05283798 -0.01439775 -0.004932021 0.02874651 -0.051628046 -0.05958047 -0.00394556 -0.008511386
-0.0120566115 -0.017457576 -0.06014464 -0.024429291 -0.010085271 0.019010348 0.013984673 -0.047688577
-0.00032426766 0.03590882 0.0510818 0.04064822 0.015467019 -0.07866544 -0.017059185 0.016958414
-0.005712666 0.04557542 -0.026733298 0.057612192 -0.018108882 0.038580388 -0.050894964 -0.08082006
0.008708282 0.012747991 -0.03160023 0.0048987367 -0.024698034 -0.015641322 0.044341914 0.015508822
-0.04690298 0.019150976 -0.018595539 0.017086608 0.019992672 -0.00997035 0.036613632 -0.06078428
-0.06739592 0.0054399977 0.013283241 0.003028949 0.045290682 0.057630487 -0.019377548 -0.02207328
-0.030746588 -0.030441308 0.022743072 0.036587726 0.0067702234 -0.08542244 -0.059113473 -0.010132302
-0.021141112 0.059152044 -0.04949153 -0.015529739 -0.0946069 0.014312976 0.006940022 -0.05383622
-0.013597759 -0.055935685 -0.04261622 0.01712424 0.02212558 -0.029975956 0.040634282 0.038435534
-0.028111065 -0.011803781 -0.004269508 -0.06534096 0.021740487 -0.047377307 0.0408574 -0.030768944
0.025734069 -0.039366946 -0.037082057 -0.049779482 0.025329191 -0.038456235 0.01851085 -0.010133738
0.045450564 -0.003062524 0.044133116 -0.016049758 0.020919045 0.0041003046 -0.028124344 -0.01813536
0.0077191833 0.021943701 0.0018700003 0.026830873 0.0043288767 0.023148946 -0.029089045 0.0028762366
-0.014723002 0.0028037445 0.03180248 -0.029368663 -0.047385905 -0.046174772 -0.04537197 -0.03268532
-0.02309115 -0.060334574 0.00645239 -0.012313155 0.005983415 0.013281005 0.05046449 0.007087626
0.0059032617 -0.020481845 0.086010985 0.036011375 0.00928406 0.032364845 0.03438441 -0.004015197
0.053024117 0.038864262 0.03048538 0.017101891 -0.04321522 -0.020971367 -0.01634099 -0.02555937
-0.07642803 0.006554193 -0.047703546 -0.07191142 -0.013287122 -0.066511154 0.049832948 0.0009309561
0.042156003 0.033533297 -0.0035160389 0.011164814 -0.009860197 0.01882907 0.061149854 -0.0012300999
0.046674434 -0.045259148 0.051889617 -0.015729984 0.019487396 -0.018813927 -0.02065737 -0.016215533
0.03785985 -0.043076523 0.0060894885 -0.03616993 0.029559279 0.037882887 -0.04620733 -0.0018989778
-0.0111275865 -0.057976473 0.011500763 0.01280538 -0.021777328 0.0095038 -0.01654008 0.020060854
0.034835145 -0.011406143 0.042701688 0.020242384 -0.023180423 -0.039772157 -0.018928815 0.05180431
0.040060915 0.034627408 0.016700886 -0.03487851 0.014488197 0.015810734 -0.015430777 0.01586207
-0.016474446 -0.018351119 0.023264697 -0.022035135 0.01461275 -0.01656451 0.06958893 -0.020297198
-0.009681965 -0.025955992 0.0146028055 0.026280658 -0.025018603 0.001205623 0.018587431 -0.026846878
-0.016083745 0.007227051 0.0013099528 -0.043138694 0.012895389 -0.012350952 0.033500325 0.00704326
-0.003685366 0.021478033 -0.014220537 0.03804428 0.07308124 -0.016975457 0.017312089 0.0017417207

fc1.bias f4 [120]
00000000: d0a4 843d 6493 47be 4368 813e 2ada 4d3e
00000010: 4f10 f93d bc50 1fbd 5112 e13d 45fc a7ba
00000020: fe90 703c 9614 9cbc f12c c53c 0757 003e
00000030: a2ae 54bd c374 ebbc 79ca 3c3e f24f 493e
00000040: 79ea 043c 1fab 71bc a9ea f63d 3a85 babc
00000050: 84b9 ae3c 186a 033d 7824 61bd 6558 323b
00000060: 8e4a d43d f76f c73c 89fa b9bb 041a aa3c
00000070: 49d1 30bc 5456 f5bc 3ccc a53b 6903 e039
00000080: ac84 333d 84b8 65bc fdbe 853a 9189 42bc
00000090: 0374 39bd fc95 893d cda2 253e 2d55 413e
000000a0: c25c b5bd 3da0 223e 5975 413d 8d27 9fbb
000000b0: b019 5a3c 57ff f33d 6e38 e53d ea13 963c
000000c0: 0d26 bbbc c486 05be d8eb 633d f51e a1bd
000000d0: 688e 7ebc 96bd 903d cc3b 07bd 933d 5c3c
000000e0: d0c2 d7bd 01d3 cebd 87ec 92bc 2067 83bd
000000f0: 9eb8 793d e7d9 233c c476 c0bc 943e b6bd
00000100: f08e 4f3c 35c3 0fbb 675e 5a3d 642a 133e
00000110: 0023 883b a538 b13d b264 25bd 437b 653c
00000120: e09b 473c 4ec2 ccbc 48f6 e03d 4b40 f8bc
00000130: 6ce8 adbc 5937 02bd aaf5 a23d da9e 95bd
00000140: f5b5 e83d 225b 8bbd 5cd1 4ebd f739 4a3d
00000150: cdae 35bd 82e1 433e e74b 0a3d 2c38 353e
00000160: c02b 29bd fb3a c0bc 1a97 e3bc 90ae 9bbd
00000170: 8d41 c1bd 8d38 3e3e 7c0f 3ebb abad 2b3e
00000180: 5d4e a8bc a79e c83c cccb 1d3d c8de 1b3d
00000190: f61d b4bd a2a6 a93d b886 e23c 9e7f 6f3d
000001a0: 5cb3 3fbd 5d01 923d 7b21 3ebd 14e5 06bd
000001b0: 308b 153d d731 b0bd d09c 0d3e afd6 4ebd
000001c0: c95b 743b b73a 203d 1c6a ba3d 3051 fdbd
000001d0: 24ee 51bd 485c e1bc aeb2 26bd 7661 48bd
0.06476748 -0.19489819 0.25274858 0.20102754 0.12161314 -0.038895354 0.10989822 -0.0012816271
0.014683006 -0.019052785 0.024069281 0.12533198 -0.051924355 -0.0287422 0.18436612 0.19659403
0.008112543 -0.014750271 0.120564766 -0.022768606 0.021328695 0.0320836 -0.05496642 0.0027213332
0.10365783 0.024345381 -0.005675618 0.020764358 -0.010792085 -0.029948391 0.005059747 0.0004272715
0.043827698 -0.014021043 0.0010204014 -0.011873619 -0.045276653 0.067180604 0.16175385 0.18880148
-0.08855583 0.15881439 0.047231052 -0.0048570097 0.013311788 0.119139366 0.11192404 0.018320043
-0.022845292 -0.1303969 0.05564484 -0.07867233 -0.015536882 0.07067411 -0.03301601 0.013442415
-0.105352044 -0.100988396 -0.01793505 -0.06416154 0.06096708 0.010000682 -0.023494132 -0.088986546
0.012668356 -0.002193642 0.053312685 0.1437164 0.004154563 0.08653382 -0.040379234 0.014006439
0.01218316 -0.024994995 0.109844744 -0.030304095 -0.021228991 -0.031791065 0.07957013 -0.07305689
0.113628305 -0.068044916 -0.05049263 0.049371686 -0.044356156 0.19128993 0.033763792 0.17697209
-0.04130149 -0.023465624 -0.027782012 -0.076016545 -0.09436331 0.1857626 -0.0029000929 0.16765468
-0.020545179 0.024489714 0.038524434 0.038054258 -0.08794777 0.08283736 0.02765213 0.058471315
-0.04680191 0.07129166 -0.04641865 -0.03293331 0.036509693 -0.08603256 0.1382935 -0.050497707
0.0037286154 0.039118495 0.0910227 -0.12369001 -0.0512525 -0.027509823 -0.040697746 -0.04892107

fc2.weight f4 [84, 120]
00000000: 6d62 acbd 355a c63c c178 7e3c 35e3 193c
00000010: 4f80 2a3d 7e88 ef3d ba81 71bc 42a6 17bc
00000020: f306 bebd 9ddc 9fbc 44c0 c5bd b8b8 ca3d
00000030: e6ff d0ba 6912 933c 721c 9f3c d506 b03d
00000040: e3ab ba3d 59ed 5dbd 96e7 e4bd f1c2 1a3d
00000050: 86e2 a43d 7510 0f3c 0ceb 0fbd 3833 c03d
00000060: 9303 2ebd 4449 8c3d b8c3 cf3d 8bfa 443d
00000070: f023 923d e35c 8dbd dbaf 86bd 0c9e 20bd
00000080: 0cb4 63bd 0a01 343d 461a 79bd 8ee9 7cbd
00000090: 3bda 963d 1fd8 b63c ce7e 833c 2316 26bc
000000a0: 4595 063e 92a4 f03d 2fe3 5d3d afe7 11bd
000000b0: 3d19 febc 244c 93bd 9880 b23d 0c7b 083b
000000c0: c2a0 243d cf72 1ebd 1ffe 0c3e 8f4c bcbc
000000d0: c9c7 4e3d 608d e93c f519 33bd 7a65 1339
000000e0: e366 c5bc 8695 133d 1146 b2bc defe acbd
000000f0: 9a5d b9bd ee48 5cbb ece9 39bc cf04 a5bc
00000100: e864 dabd f570 c43c d37c 59bd ce67 043e
00000110: 964c 9bbd 4288 9b3d d6fb 77bd be32 95bd
00000120: 9374 f43c c956 e4bd 9dd9 793d 8707 113d
00000130: be05 d2bc d086 9bbd 5afe cb3d e4d2 833d
00000140: 2d85 7a3d 7bc6 4c3b be74 b83c ee18 f43d
00000150: 5ddc 21bd d53c a2bc 60d8 413d 7c7a b13d
00000160: e189 aebd 6314 a8bb 74bd 89bd 9417 9ebd
00000170: d77f 27bd 4ce7 bc3d 0c09 b83d 9981 cd3d
00000180: c7e1 0f3c b6c9 d63b 2ded 6fbc a773 1d3d
00000190: f4c7 bf3b 11ce a33d c467 f1bd 202a 0e3c
000001a0: 869f f8bd 5594 e23d 8394 cdbc 294c 093d
000001b0: cfce 6f3d 8f23 65bd c2fd ef3c fbb8 59bd
000001c0: a837 f6bd b87b 5c3d 3700 873d 04c7 b3bd
000001d0: 238d 6d3b 9015 7cbd 12f7 c83d 5da8 9bbd
000001e0: 3f9c babd c5d9 21bd 4a3d 88bd 909c 9fbd
000001f0: e02f cd3c eaf6 8d3d e4aa bf3c a09a 72bd
00000200: 90fe 933b 46ca 21bd 4fb2 683d 46fe b4bc
00000210: 10be b13a 3fb6 7ebd 7865 253e f142 b23d
00000220: 0cc6 ed3d b355 f4bc 2b13 3abd 8823 763d
00000230: 39fd c43a 0469 f2bc b44a b6bc 8822 b5bc
00000240: cc16 64bc c88f 0bbc 29e8 07bd e659 95bd
00000250: 40c7 85bd 381c 69bd 8ebf 0c3e 9d2f 3e3d
00000260: 73db af3c 658a 0dbd 3ff9 933c d337 75bc
00000270: f294 46bc a5a3 533d 70c4 723d bef5 313d
00000280: 9477 82bd ba40 de3d 9831 2ebc 14fb 9b3d
00000290: f8ad 013c 7fde 833d 1842 8c3a da03 edbd
000002a0: a928 0c3d ce97 2b3d 5a12 97bd 5266 b53b
000002b0: abb4 4c3d 187c a73d 8405 743c e342 b53c
000002c0: 606f 99ba dc47 62bb b3c0 b33d d075 45bc
000002d0: 2b68 eb3d fec1 d9bd 60d7 e43c 3439 6cbb
000002e0: ba50 fb3a 690a 93bd e895 9dbc a3c6 74bc
000002f0: 448f b4bd a94a f53c dd1d d1bd 04a5 89bd
00000300: d50f 9fbd de57 01bd c5ae 01bd c514 debc
00000310: 517f 8ebd fb09 8bbd 53d4 90bd 9098 41bd
00000320: 0f41 993c 69f2 14bd 2dd5 5cbd 1729 b03d
00000330: 6de1 a3bd cc23 26bd c12a a5bd 8962 453d
00000340: 3f68 3abc b91d 83bd 76f1 8bbd e688 633d
00000350: fb00 e0bd c9e5 853d 1548 b3bd 7ce5 b53b
00000360: bf2e 353d 7911 143d 924c 603c ff15 c1bc
00000370: 040e 263d 86fd 8c3a 21e0 a7bc 77c0 62bd
00000380: 8d4c 8fbd 9a3c af3c b6de 57bd 0f99 90bd
00000390: 97a0 e03d e7e0 2ebd 11c1 223d 078c 95bd
000003a0: 83c6 6d3d 4cd3 b9bc fef5 15ba bf63 24bd
000003b0: 8c8a 42bd c5bf 2abd 965d 3fbd 2159 0bbd
000003c0: e84f 17bd 039c 75bd 5149 f73d a8fe 85bd
000003d0: a2e1 9f3d 2c6b 713c dc8d bd3d 63b3 7d3d
000003e0: fbb4 b1bd 6d8a 8d3b d783 c83d 4a0f bf3c
000003f0: bf2b b63c 49fe dfbc 9c02 083d fbd4 9abd
-0.08417211 0.024212936 0.01553172 0.009392549 0.04162627 0.11695956 -0.014740402 -0.009255948
-0.09278669 -0.019514376 -0.096558124 0.098985136 -0.0015945404 0.017953115 0.019422743 0.08595053
0.09114816 -0.05418143 -0.11176984 0.037783567 0.080510184 0.008731951 -0.035136268 0.09384769
-0.042483877 0.06849912 0.10144752 0.0480905 0.07135761 -0.06902482 -0.065765105 -0.039213225
-0.055591628 0.043946303 -0.060816072 -0.061746173 0.07365843 0.022319851 0.016051676 -0.010137114
0.1314288 0.11750139 0.054171737 -0.03562134 -0.031017894 -0.07192257 0.087159336 0.0020825295
0.040192373 -0.03868371 0.13768815 -0.022985725 0.0504835 0.028509796 -0.043725926 0.00014056815
-0.024096912 0.03603127 -0.021761926 -0.084470496 -0.09051056 -0.0033612805 -0.011347275 -0.020143894
-0.106637776 0.023979643 -0.053097557 0.12930223 -0.07582967 0.075943485 -0.060542904 -0.07285069
0.029840743 -0.111493655 0.060998548 0.03540757 -0.025637504 -0.07594073 0.09960623 0.064367086
0.061162163 0.0031246233 0.022516605 0.119188175 -0.039516795 -0.019804398 0.047325492 0.0866594
-0.08522392 -0.0051293834 -0.067255884 -0.07719341 -0.040893402 0.09223804 0.089861006 0.100344844
0.008781857 0.0065548075 -0.014643949 0.038440373 0.0058526937 0.079982884 -0.1178737 0.008677036
-0.12139802 0.11063448 -0.02509523 0.033519898 0.058546837 -0.055942114 0.029295806 -0.053154927
-0.12022334 0.053828925 0.06591838 -0.087781936 0.0036247454 -0.061544 0.0981275 -0.07600472
-0.09111833 -0.03951432 -0.06652315 -0.07793534 0.025047243 0.06931861 0.023396917 -0.059229493
0.00451643 -0.039499544 0.056810673 -0.022093903 0.0013560671 -0.062185522 0.16151989 0.08704174
0.1161004 -0.02982602 -0.045428436 0.06009248 0.001502908 -0.029591091 -0.022252418 -0.022111192
-0.013921451 -0.008518167 -0.03318039 -0.072925374 -0.065321445 -0.056911677 0.13744947 0.046432126
0.021466946 -0.03455581 0.018063186 -0.014966923 -0.012120472 0.051669735 0.05926937 0.04344725
-0.06370464 0.10852189 -0.010631941 0.07616249 0.007915013 0.06438922 0.001070085 -0.11573
0.034218464 0.04189282 -0.07376547 0.005535879 0.049976986 0.08177966 0.014893893 0.02212662
-0.0011706166 -0.0034527695 0.08776989 -0.0120520145 0.11494478 -0.10632704 0.02793473 -0.0036044838
0.0019173839 -0.0717972 -0.01923652 -0.014939937 -0.08816388 0.029942827 -0.10210774 -0.06720927
-0.077666916 -0.031577937 -0.031660814 -0.027109513 -0.069578774 -0.06789013 -0.07071748 -0.047264636
0.01870778 -0.036363993 -0.053914238 0.08601587 -0.08001981 -0.040561482 -0.08064795 0.048189674
-0.011377393 -0.064021535 -0.068331644 0.05555048 -0.10937687 0.06537969 -0.08753983 0.0055510383
0.044234034 0.036149476 0.013690131 -0.023570059 0.04054071 0.0010756708 -0.020492615 -0.05535933
-0.06997023 0.021391202 -0.052702628 -0.070604436 0.1096813 -0.042694952 0.039734904 -0.07302099
0.058050644 -0.022683762 -0.00057205546 -0.040134188 -0.04749541 -0.041686792 -0.04672011 -0.034020547
-0.03694144 -0.059963237 0.12074531 -0.065427125 0.07806708 0.014735024 0.09255573 0.061938655
-0.086770974 0.00431948 0.097907715 0.02332272 0.022237657 -0.027342932 0.033205613 -0.07560154

fc2.bias f4 [84]
00000000: 72dd 9b3e bb2d 58ba add3 cd3d e077 6cbc
00000010: a577 10bd 83af 4cbd 6d31 8c3d 6b1a 6bbc
00000020: 165f 08bd 655d 80bd 3d79 863d 237a 8fbd
00000030: 5594 10bd 9db8 75bc b1b7 1fbe 56ca 1ebd
00000040: fe43 483e 1df4 5a3e e588 d9bc 0a74 13bd
00000050: 2816 323e 0fcf 86bd 8ccd 51bc 3c5a 9c3d
00000060: 9f60 5abd 0aec aebd c469 303d c2dd 7d3e
00000070: 9a37 1e3e 22f9 b4bd 11ec 733d d492 9a3e
00000080: 97bc 533d 2a53 21bd 16fe 0bbc 64f1 07bd
00000090: 1bfc 1a3d 14ce 30bd ab11 14bb ff2f a5bd
000000a0: 9d94 133e b294 fe3d 9880 c0bd e4cf e43d
000000b0: 9b01 fc3e a99a 8dbd 7262 e63a d436 c63e
000000c0: 8108 05be 6841 6dbd a43b 9cbd a55f 2f3e
000000d0: 0df2 793e 0ab8 853d c3e2 413e df34 003b
000000e0: 475f 293e cd5d 64bd 80ab 86bc bd01 8abd
000000f0: 014a 183e 40ab 8b3e 3c20 d43d 9adf 3e3d
00000100: 272c 87bd 11e8 4dbe 6336 2b3e c887 1abe
00000110: 10eb e23c 3de2 213e e7e2 983d e7d7 a53d
00000120: bf71 ff3d b545 cabb bf40 143e df92 a33e
00000130: bb76 b0bc f32f 2dbd e0b2 193d d399 9c3d
00000140: 807a ff3c 4081 3c3d 0348 853e ffeb dc3c
0.30442387 -0.00082465605 0.100501396 -0.014432877 -0.035270352 -0.04997207 0.06845365 -0.01434956
-0.033293806 -0.062678136 0.06566093 -0.070057176 -0.03529771 -0.0149976285 -0.15597416 -0.03876718
0.19557187 0.21382184 -0.026554534 -0.035999335 0.17391264 -0.06582462 -0.012805354 0.07634398
-0.0533148 -0.08541115 0.043069616 0.24791625 0.15450898 -0.08836581 0.059551302 0.30190146
0.051693525 -0.039385952 -0.0085444655 -0.033189192 0.037838083 -0.04316528 -0.0022593539 -0.08065795
0.1441216 0.12430705 -0.09399527 0.111724645 0.49219975 -0.06914265 0.0017576946 0.38713706
-0.12991525 -0.057923704 -0.07628563 0.17126329 0.24408741 0.06529243 0.18934159 0.0019562764
0.16540252 -0.055753518 -0.0164392 -0.06738613 0.1487198 0.2727909 0.10357711 0.04659996
-0.06600218 -0.20108058 0.16719966 -0.15090859 0.027699977 0.1580896 0.07465153 0.08097821
0.12472867 -0.0061728605 0.14477824 0.3194799 -0.02154099 -0.042282056 0.037524104 0.07646527
0.031186342 0.0460217 0.26031503 0.026968

fc3.weight f4 [10, 84]
00000000: 6032 37be e09f 043d fb58 103e f5d2 083e
00000010: 9fa0 863d add3 913d 8cc1 cfbd 3116 6d3d
00000020: fa6d 27bd 7875 fabd bff6 073e 4695 613e
00000030: 050b 123e c380 47bc 8eb9 1b3e 8214 0abe
00000040: ca1e b23d 8d4e 563e 5083 92bd ede8 a13d
00000050: 3216 c4bd 8456 81bd ea47 c3bc b965 0bbe
00000060: a6c3 d9bd 0bd9 f43d b09f 393e 56a5 5cbe
00000070: d8b8 2b3e cfda f73d c411 a83d 5b6c 3abe
00000080: d238 59bd d635 2fbd 6d79 dabc 6d35 4bbe
00000090: 5698 1c3b a295 333e f46c f3bd 0b25 5e3e
000000a0: ee1a 4abe 01a3 22bd 3686 533e d9fa dbbd
000000b0: 6068 e1be 8b0e 0dbd 652b a43d bb6b 243d
000000c0: aaa7 fb3d 7357 1abd 76e8 653d 3dc2 7c3e
000000d0: 58d5 563c 4dcc 583e b8d6 bfbd c8eb 91be
000000e0: bf92 8f3e c439 303e c765 1cbe 001d bc3c
000000f0: b322 503c 1fae cd3d 1434 413e 9f78 bbbd
00000100: 7f09 46bd 4977 0a3d 1a96 763e 2f86 b03c
00000110: 3022 5ebd c8ac 313e 95f3 97bd 73b7 0fbe
00000120: 21a5 903d 3eec 603e dcad 93bc 9645 823e
00000130: 1256 8e3d 56cd 74bd 602a 86bd e276 cb3d
00000140: 19e7 98bc ad6f 263e 9bb5 8bbe 7812 3b3d
00000150: 9967 78be 5484 233d 2c53 dc3d 7191 2b3e
00000160: a050 2e3e 2af6 5cbc ca31 693c df29 99bc
00000170: 5995 233e 4dc0 79bc 0468 40bd f0b3 e63d
00000180: 4b80 313e 4861 333e 1dab 033d 06fc 243e
00000190: 0103 dc3d fa01 a5bd 7618 83bc a604 cdbc
000001a0: 4a1e 2fbe 222c e33d a7cc 10bc 83fd 823e
000001b0: d4ad 86bd 9bf1 03be c08e 8ebe 4670 4fbe
000001c0: 0bcb 74be ce85 153a 78b5 22be 0def 2fbe
000001d0: 448e fb3c 3a3e 4cb9 eb86 0abd 80b8 813e
000001e0: 2dfc 143e 3a1e 213e 4908 013e 6174 d03d
000001f0: eb3d 00bd 8f44 33be 4bcc d9bd e72a 143d
00000200: 0fb1 4dbd da27 35bd 2fad 40bc dcdf abbe
00000210: 2c25 583e 0522 15bd 2756 d9bd 1340 8a3e
00000220: 04ba 92bd 0410 a33e ff53 32be 8695 923e
00000230: 5279 d6bd 7418 823d a52b 56be db38 6c3c
00000240: 18e7 afbd 67d0 34bd 334a 12be 1b43 25be
00000250: 3be4 bb3d 0eb7 913e 832b b63d 398d 89bd
00000260: 3833 a13d 5b15 3dbe 2a2e b5bc a4b4 523d
00000270: 8957 843d 02fd 663e 23a8 bebd d22f 01be
00000280: 6639 3c3e be71 42bd db71 6fbd 5388 9d3d
00000290: 760b 00be bd33 ebbd 55a0 8fbe 7011 023e
000002a0: 19d0 6f3e 7150 0bbe 8e63 2dbe fabe 82bd
000002b0: 97cf 03be f8e4 7f3b 70c6 3fbd 1c01 82bd
000002c0: b47f 74bd cf33 a2bd e829 7f3e 630c adbd
000002d0: 5803 01be e3f5 203e 64f5 533d 8075 0dbe
000002e0: e3e1 f4bc 14d3 99bc 3431 b13d a406 ccbc
000002f0: ba06 5e3e c708 07be 43e4 babc 6e95 43be
00000300: 409c cf3d d293 493d b68d 1a3e 8bf7 c7bd
00000310: 198c 0d3e aec9 bd3d 5dd7 3bbe 466c 0e3e
00000320: 1020 bc3d 5aab 01bd 954b 833d 65d6 43bc
00000330: c489 523d 2500 663c 934b 15be a621 643d
00000340: db73 e5bc 4601 133e 4295 2cbe 42eb 95bd
00000350: 2e81 963e c511 713d da23 f43c 57f1 1e3d
00000360: 7e00 8fbd fcc3 acbd 2d79 203e 8da5 d2bd
00000370: c25f 87bc d4f3 0dbe b13a 02be a474 d23c
00000380: 8051 aa3e 6011 bdbd 141a 503c 0ad2 2ebd
00000390: 08df 87bd dd29 6b3c ba55 833c 5a32 a93a
000003a0: 8551 783d e6e7 d63d 1db7 773d 6ccc d2ba
000003b0: ebba 813d 3b22 3c3e 8885 093e c4df 04be
000003c0: b5bb eb3a 5d66 debd a366 e6bb 8ded 9f3e
000003d0: 5e9d c0bd 4010 693d 3c8a b7bd 141f 27bd
000003e0: f4f5 1fbd 1682 553e e92f cf3d c6d4 d93d
000003f0: 2e68 0b3e 9603 cf3d ea04 5ebe 6d26 373d
-0.1789031 0.03237903 0.14096443 0.13361724 0.06573605 0.07120452 -0.10144338 0.05788249
-0.040876366 -0.12229437 0.1327772 0.220296 0.14262016 -0.012176695 0.15207502 -0.13484386
0.08697279 0.20928402 -0.07153952 0.07905755 -0.09574546 -0.0631533 -0.023838002 -0.13613023
-0.1063302 0.1195546 0.18127322 -0.21547446 0.16769731 0.12102281 0.082065135 -0.18205397
-0.053032704 -0.04277595 -0.026669228 -0.19844599 0.002389451 0.17537549 -0.118860155 0.21693818
-0.19736835 -0.039706234 0.20656666 -0.10741205 -0.44024944 -0.034437697 0.08016089 0.040141802
0.12287839 -0.037681054 0.056129895 0.24683471 0.013112389 0.21171685 -0.09367126 -0.285002
0.28041646 0.17209536 -0.152732 0.022963047 0.012703585 0.100429766 0.18867522 -0.09153866
-0.0483489 0.033805165 0.24080697 0.021548359 -0.054231822 0.17351067 -0.074195065 -0.14034824
0.07062746 0.21965119 -0.018027239 0.25443715 0.0695001 -0.059766136 -0.06551051 0.099347845
-0.018664883 0.16253538 -0.2728699 0.04567191 -0.2425827 0.03992112 0.10758051 0.167547
0.17022943 -0.013486424 0.014233062 -0.018696724 0.1597494 -0.015243602 -0.046974197 0.11264789
0.17334096 0.17517579 0.03214561 0.16111764 0.107427604 -0.080570176 -0.016002875 -0.02502663
-0.17101398 0.11092402 -0.008837855 0.2558404 -0.06576124 -0.12885134 -0.27843285 -0.20257673
-0.2390558 0.00057038374 -0.15889537 -0.17181034 0.030707486 -0.00019478137 -0.033820074 0.25336075
0.14549322 0.15734187 0.12600817 0.101784475 -0.03130905 -0.17506622 -0.10634669 0.036173727
-0.050217684 -0.04422746 -0.01176004 -0.3356923 0.2110793 -0.036409397 -0.106121354 0.2700201
-0.07164386 0.31848156 -0.17414854 0.28629702 -0.10472359 0.0635232 -0.20915087 0.014417852
-0.085889995 -0.04414406 -0.14286117 -0.1613888 0.09174391 0.28459972 0.08895018 -0.06716389
0.07871097 -0.18465178 -0.02211674 0.051441804 0.064620085 0.22557452 -0.09309413 -0.12615898
0.18381271 -0.047471754 -0.05845819 0.076920174 -0.12504372 -0.11484478 -0.2805201 0.12701964
0.23419227 -0.13604905 -0.16932508 -0.06384082 -0.12872158 0.0039046388 -0.046820104 -0.06347868
-0.0596921 -0.07920038 0.2491833 -0.08449628 -0.12598932 0.15718798 0.051747695 -0.13814354
-0.029892867 -0.018777408 0.08651963 -0.02490551 0.21682253 -0.13186942 -0.022813922 -0.19099972
0.10137224 0.049213238 0.15093121 -0.09764012 0.13822974 0.09266983 -0.18343873 0.1390849
0.09185803 -0.031657554 0.064109005 -0.011952971 0.051400915 0.01403812 -0.1457961 0.055696152
-0.028009346 0.14355955 -0.16853812 -0.073202625 0.2939543 0.058854837 0.029802252 0.03880438
-0.06982516 -0.084358186 0.15671225 -0.102854826 -0.016525153 -0.13862544 -0.12717701 0.025690384
0.33265305 -0.0923183 0.01270153 -0.042680778 -0.06634337 0.014353243 0.016032089 0.0012908683
0.060624618 0.1049345 0.060477365 -0.0016082651 0.0633448 0.18372433 0.13429844 -0.12975985
0.0017985018 -0.10859368 -0.007031278 0.31235924 -0.094050154 0.056900263 -0.08961913 -0.040801123
-0.03905292 0.20850405 0.1011656 0.106362864 0.1361396 0.10108106 -0.21681562 0.04471438

fc3.bias f4 [10]
00000000: f6cf 51be a9c6 21bf c82e eb3d f9f4 a13e
00000010: 8295 e03e 963b aebd e2fa 893d 44ee 8cbe
00000020: 457e c43e ec2e 99be
-0.20489487 -0.63193756 0.11483532 0.31632212 0.43864065 -0.08507459 0.06737305 -0.27525532
0.38377586 -0.2991861
